model/model.pth (torch, 16799 bytes, 4 tensors)

linear1.weight f4 [256, 11]
-0.018891374 0.87330574 -1.357995 0.32692423 0.50493366 -0.007583695 0.09921732 -0.46350756
-0.21648674 -0.461605 -0.37608212 0.38125736 0.41376448 0.67956424 0.0071951905 -0.12985042
0.032414332 -0.5605156 0.3965875 0.6241418 0.25311938 0.63252056 0.100084715 -0.38268527
0.17711033 -0.2786987 -0.023950944 -0.050305586 -0.19095095 0.030544179 -0.02402381 -0.2540575
0.044275824 -0.27652955 -0.28480282 0.20061088 0.013915986 0.16135895 0.083106935 0.15119827
-0.13847405 -0.14545201 -0.29277807 -0.045513265 0.0864251 -0.110958904 -0.0956991 0.03524974
-0.1632922 -0.120146304 -0.04858656 -0.12390359 -0.23951079 -0.23197304 -0.024655277 0.062560104
0.74101377 0.5849971 0.14472868 -0.15258338 -0.20876332 0.14268467 0.303551 0.6063449
0.60405606 0.27018565 0.4145392 0.339238 0.2845983 0.18870448 -0.5620815 -0.09908372
-0.7123795 -0.3029382 0.5963733 0.09124275 0.49975026 -0.021404097 -0.71274537 0.51186097
-0.97530615 -0.30158564 0.10751366 0.44863766 -0.77705586 -0.91131943 0.12873036 0.30285498
0.297449 -0.49913695 0.0046105986 0.025555497 0.0025636258 -0.38086253 -0.092420034 0.032584727
0.03733871 -0.06446008 -0.017887998 -0.0691499 0.27625024 0.6964446 -0.43096054 -1.2378348
0.076556474 0.046985812 -1.0637406 -0.3559046 0.208095 0.22937818 0.12447123 -0.56057084
0.25191548 -0.46393815 -0.41376075 -0.4345968 -0.40117085 0.1346985 0.10343348 -0.06680494
-0.14292333 0.03321986 -0.009769643 0.96713734 -0.07714238 -0.44723713 -0.2549863 -0.04955188
0.3396516 0.1221297 0.37080097 0.068663545 -0.05675293 0.18708853 -0.9736887 0.24779172
-0.77255934 -0.31967837 0.17205133 -0.19539858 0.62592626 0.3611825 0.079272315 0.4309758
-0.34640345 0.1684744 0.20024665 -0.4625732 -0.124896765 0.027388962 -0.08679543 0.21688788
-0.27150768 0.10781133 0.25321364 0.05419112 0.05816295 -0.18113764 -0.73106915 0.5948067
0.0113440035 0.368473 -0.7108928 -0.3674713 0.3141567 -0.36002192 -0.018392146 -0.15598212
0.056636605 -0.5789878 0.50254536 -0.59315944 -0.80331147 -0.5539802 0.25317842 -0.7928197
0.15400714 0.17384781 -0.6867374 -0.37185296 -0.58641154 -0.021701857 -0.03107924 -0.12200352
-0.31317914 -0.30803627 -0.4153301 0.15539217 0.041824788 -0.011124357 0.56372464 -0.1617813
0.9059911 -0.36006865 -0.2653212 0.48488292 -0.5332281 0.65744084 -0.29048845 -0.32570043
0.2042211 -0.20374186 0.11999544 -0.043941647 -0.27602032 -0.26183408 -0.22869675 -0.2466899
0.05295888 -0.28660402 0.28656942 0.08879084 0.019834485 0.022759603 0.02190504 -0.12137066
-0.05920508 -0.1640262 -0.40160224 -0.2629998 0.02562848 0.48028687 0.16812228 -0.22856243
-0.15187119 -0.17518419 0.033504345 0.11541327 0.3219789 0.46390843 0.04289912 0.80624086
0.15515152 -0.9346742 0.40197814 -0.004667823 0.2761442 -0.24114233 -0.30244374 0.18430401
-0.018366583 0.19472773 -0.14287016 -0.24505173 -0.30016506 -0.17781726 -0.22551453 -0.10319563
-0.041864943 0.19809343 0.13405849 -0.056572665 -0.17578623 0.044705212 -0.7313472 0.3461913
00000000: 15c2 9abc f790 5f3f c8d2 adbf 9d62 a73e
00000010: 5543 013f a580 f8bb 7332 cb3d dd50 edbe
00000020: b3ae 5dbe 7e57 ecbe d68d c0be 2a34 c33e
00000030: f0d8 d33e ecf7 2d3f a2c5 eb3b 82f7 04be
00000040: e4c4 043d f37d 0fbf 840d cb3e c2c7 1f3f
00000050: dd98 813e deec 213f 37f9 cc3d 53ef c3be
00000060: 695c 353e 99b1 8ebe c534 c4bc 3b0d 4ebd
00000070: a588 43be c937 fa3c 95cd c4bc d313 82be
00000080: 915a 353d 4895 8dbe add1 91be f06c 4d3e
00000090: e0ff 633c 483b 253e f833 aa3d b8d3 1a3e
000000a0: 24cc 0dbe 5ff1 14be 02e7 95be 1e6c 3abd
000000b0: a5ff b03d 6c3e e3bd e4fd c3bd 0862 103d
000000c0: 1236 27be 440f f6bd b302 47bd 2ac1 fdbd
000000d0: 5142 75be 578a 6dbe ddf9 c9bc 831f 803d
000000e0: 14b3 3d3f 5fc2 153f c133 143e d13e 1cbe
000000f0: 0dc6 55be ee1b 123e 096b 9b3e 6b39 1b3f
00000100: 6ba3 1a3f c655 8a3e 7b3e d43e 9ab0 ad3e
00000110: deb6 913e bf3b 413e 93e4 0fbf 68ec cabd
00000120: 815e 36bf b71a 9bbe ecab 183f 7bdd ba3d
00000130: 44df ff3e a557 afbc 7b76 36bf 5209 033f
00000140: aaad 79bf 6f69 9abe 1f30 dc3d d6b3 e53e
00000150: 22ed 46bf 3b4c 69bf e4d1 033e cf0f 9b3e
00000160: 3c4b 983e e18e ffbe 8114 973b c359 d13c
00000170: 8102 283b 6a00 c3be b746 bdbd 9077 053d
00000180: 7af0 183d a503 84bd da89 92bc 769e 8dbd
00000190: ac70 8d3e 314a 323f dca6 dcbe 5f71 9ebf
000001a0: a4c9 9c3d 3274 403d a728 88bf 2139 b6be
000001b0: db16 553e 1de2 6a3e c6ea fe3d 9281 0fbf
000001c0: 11fb 803e 4d89 edbe 73d8 d3be 7983 debe
000001d0: 4466 cdbe 67ee 093e efd4 d33d 07d1 88bd
000001e0: 7e5a 12be 8c11 083d da10 20bc 5096 773f
000001f0: d3fc 9dbd 44fc e4be 908d 82be eaf6 4abd
00000200: d1e6 ad3e 231f fa3d a0d9 bd3e 799f 8c3d
00000210: c375 68bd 2394 3f3e aa43 79bf 1dbd 7d3e
00000220: 73c6 45bf e2ac a3be 392e 303e 9116 48be
00000230: b43c 203f eaec b83e 8659 a23d dca8 dc3e
00000240: cb5b b1be 8e84 2c3e 750d 4d3e 65d6 ecbe
00000250: e0c9 ffbd d15e e03c cdc1 b1bd db17 5e3e
00000260: 0e03 8bbe 30cc dc3d 38a5 813e 82f7 5d3d
00000270: 463c 6e3d 257c 39be 5927 3bbf 4045 183f
00000280: 33dc 393c 7ea8 bc3e 12fd 35bf 3325 bcbe
00000290: 26d9 a03e cb54 b8be 20ab 96bc c7b9 1fbe
000002a0: c9fb 673d 8b38 14bf d0a6 003f 4cd9 17bf
000002b0: d2a5 4dbf a5d1 0dbf 9aa0 813e 3bf6 4abf
000002c0: 0cb4 1d3e 2905 323e 06ce 2fbf 8363 bebe
000002d0: 111f 16bf 18c8 b1bc e499 febc fbdc f9bd
000002e0: 0459 a0be eeb6 9dbe 26a6 d4be 201f 1f3e
000002f0: 7850 2b3d ef42 36bc 4250 103f ffa9 25be
00000300: 08ef 673f eb5a b8be 2ed8 87be 9342 f83e
00000310: a381 08bf 0b4e 283f e7ba 94be 35c2 a6be
00000320: 561f 513e b5a1 50be 2bc0 f53d 28fc 33bd
00000330: 8952 8dbe 1e0f 86be 7b2f 6abe 479c 7cbe
00000340: 69eb 583d c3bd 92be 3ab9 923e f9d7 b53d
00000350: ee7b a23c 5972 ba3c 3372 b33c 2e91 f8bd
00000360: 0781 72bd 7cf6 27be cf9e cdbe e9a7 86be
00000370: d1f2 d13c 29e8 f53e 3f28 2c3e 450c 6abe
00000380: 1f84 1bbe 7c63 33be da3b 093d cb5d ec3d
00000390: 6bda a43e 6885 ed3e fdb6 2f3d cd65 4e3f
000003a0: 0ae0 1e3e cf46 6fbf 14d0 cd3e 8af4 98bb
000003b0: c662 8d3e 04ee 76be e8d9 9abe 31ba 3c3e
000003c0: 8475 96bc b566 473e 8e4c 12be d7ee 7abe
000003d0: 3caf 99be ba15 36be 48ed 66be 3b58 d3bd
000003e0: 937a 2bbd 01d9 4a3e a146 093e bdb8 67bd
000003f0: 4e01 34be d01c 373d 9239 3bbf fc3f b13e

linear1.bias f4 [256]
0.3939912 -0.5673007 -0.33027136 -0.33412 -0.10201586 -0.55015826 -0.3508159 0.16684887
-0.478152 0.08394769 -0.22066721 -0.044834007 -0.27614346 -0.4736923 -0.44898695 0.24176112
-0.17952494 -0.3895218 -0.38544726 -0.37328577 -0.28528 -0.30619195 -0.16330232 0.17466913
-0.289097 -0.33410242 0.4094299 -0.42320168 -0.49382403 -0.021889452 -0.14912811 -0.063833326
0.14285621 -0.032872856 -0.4737649 -0.30664587 -0.29108697 -0.13860528 -0.40277353 -0.01684323
-0.2949398 -0.32384774 0.6767088 -0.45126474 -0.31733304 -0.15658872 -0.56445956 -0.20095041
0.051535163 -0.34617788 -0.4132222 0.028295746 -0.3818356 0.053474832 -0.2539709 -0.21743833
0.032471787 -0.49233556 0.014479477 -0.26124135 -0.039257705 0.14121765 0.14689454 -0.32909703
-0.18098861 -0.25493234 -0.6483877 -0.23976128 -0.083609104 -0.3836283 -0.3913406 -0.03598805
-0.4003563 0.033169948 -0.3419737 -0.19337077 0.54909533 -0.052851487 -0.6149437 0.225926
0.37486634 0.013173406 0.012249297 -0.31416926 0.0034150654 0.016164284 -0.04125919 -0.13458507
0.39681372 -0.38148195 -0.43392795 0.41000813 -0.19313167 -0.50002664 -0.004039066 -0.14907248
-0.31391668 -0.4497831 -0.29504132 -0.2731379 -0.12691976 1.0175012 -0.277379 -0.36072
-0.26181003 -0.17278154 -0.52227265 -0.20360681 0.48521128 -0.5181858 -0.3975972 0.18810494
-0.15408258 0.5354825 0.51314044 -0.16067511 -0.08917675 -0.25265956 -0.18360144 -0.3214234
-0.60805637 -0.2646159 -0.2896865 -0.50237423 -0.24732219 0.023213228 -0.6594432 -0.59363735
0.082954526 -0.55448854 0.035032663 -0.30097905 0.2317582 -0.43820953 -0.59462464 -0.21879768
-0.18527243 0.5959326 -0.068241514 -0.122179665 -0.42295495 -0.25864202 0.5738486 -0.2285959
-0.2628092 -0.039234404 -0.10938068 0.4230505 -0.19210544 -0.40718794 -0.27775568 -0.11993073
-0.4820402 -0.15369314 -0.18907535 -0.15529452 0.6783905 -0.32773593 0.43256664 -0.39243138
0.10710312 -0.533459 -0.12952742 -0.47949496 0.049079347 -0.039024048 -0.3691407 0.013933018
0.09728335 -0.6442235 -0.29565528 -0.33270535 -0.67989993 -0.033889215 -0.46908247 -0.33265454
-0.16101289 -0.37010932 -0.1272298 -0.33656406 -0.20373073 -0.57855475 -0.5335661 -0.13781865
-0.44403508 0.21667239 -0.17790817 0.25286338 -0.26556793 -0.17669739 0.39991385 0.111736715
1.8525758 -0.45626768 -0.07285801 -0.14745325 0.16684483 -0.5919626 0.055156898 -0.122863404
0.06855272 -0.5219108 -0.37864017 -0.11318243 -0.19364557 -0.22063144 -0.6080034 -0.08312041
0.60866696 -0.16979915 -0.16434164 -0.28170493 -0.13843246 -0.22961205 -0.31906316 0.01892981
-0.3143484 -0.05265671 -0.11424751 -0.13475743 0.02799674 0.29852676 -0.10414049 -0.2720232
-0.01236565 -0.083166726 -0.5148674 -0.040403485 0.34795094 0.55101544 -0.72094065 0.12851466
-0.19916572 -0.059950136 0.36693075 0.122095145 -0.36305872 -0.47174257 -0.27971599 -0.18865149
-0.27712667 -0.08882657 -0.41526756 -0.34696576 -0.069052234 0.07985143 0.07443057 -0.35533378
0.45373225 -0.1522968 -0.4272816 0.7224284 0.37576288 -0.029796125 -0.14479052 0.46983925
00000000: 37b9 c93e 9e3a 11bf 5419 a9be c711 abbe
00000010: b1ed d0bd 2cd7 0cbf 249e b3be 6eda 2a3e
00000020: 57d0 f4be c4ec ab3d 96f6 61be dda3 37bd
00000030: ad62 8dbe cc87 f2be 9ee1 e5be 3a90 773e
00000040: 63d5 37be 676f c7be 5859 c5be 501f bfbe
00000050: 3810 92be 31c5 9cbe b938 27be 77dc 323e
00000060: 8604 94be 790f abbe cca0 d13e e4ad d8be
00000070: 81d6 fcbe 8251 b3bc 0ab5 18be 0cbb 82bd
00000080: e648 123e b0a5 06bd 5091 f2be b000 9dbe
00000090: 5a09 95be 8bee 0dbe 5538 cebe d0fa 89bc
000000a0: 5902 97be 5fcf a5be ca3c 2d3f 2c0c e7be
000000b0: 7a79 a2be cb58 20be 6c80 10bf f2c5 4dbe
000000c0: 8916 533d 3a3e b1be dc91 d3be 7bcc e73c
000000d0: f57f c3be 6d08 5b3d 7908 82be 27a8 5ebe
000000e0: 2301 053d 6813 fcbe 543b 6d3c 6dc1 85be
000000f0: b0cc 20bd 5c9b 103e 866b 163e 687f a8be
00000100: 1455 39be 7e86 82be bcfc 25bf fb83 75be
00000110: 403b abbd ee6a c4be cc5d c8be 3568 13bd
00000120: 80fb ccbe 36dd 073d 2d17 afbe fd02 46be
00000130: 8391 0c3f cd7a 58bd f36c 1dbf 2559 673e
00000140: 7bee bf3e 45d5 573c 47b1 483c cbda a0be
00000150: 4acf 5f3b f66a 843c 65ff 28bd abd0 09be
00000160: 2b2b cb3e 9a51 c3be ce2b debe 96ec d13e
00000170: 4fc4 45be bf01 00bf 245a 84bb 75a6 18be
00000180: b0b9 a0be f849 e6be a80f 97be bbd8 8bbe
00000190: 41f7 01be 7b3d 823f 9f04 8ebe 4bb0 b8be
000001a0: f70b 86be a5ed 30be a9b3 05bf 4e7e 50be
000001b0: 9d6d f83e d3a7 04bf dc91 cbbe 959e 403e
000001c0: d3c7 1dbe 6215 093f 2c5d 033f 0488 24be
000001d0: 4da2 b6bd 985c 81be 0402 3cbe 9c91 a4be
000001e0: 95a9 1bbf bc7b 87be ca51 94be 999b 00bf
000001f0: 0742 7dbe ab29 be3c 45d1 28bf 9ef8 17bf
00000200: 10e4 a93d f6f2 0dbf 697e 0f3d ed19 9abe
00000210: 0652 6d3e 005d e0be 5239 18bf 800c 60be
00000220: 0eb8 3dbe 0a8f 183f 35c2 8bbd 5539 fabd
00000230: 8d8d d8be ba6c 84be bee7 123f 0b15 6abe
00000240: ed8e 86be 41b4 20bd fa02 e0bd 139a d83e
00000250: 4ab7 44be f07a d0be fe35 8ebe 3e9e f5bd
00000260: f9cd f6be bc61 1dbe f89c 41be 8705 1fbe
00000270: 00ab 2d3f 01cd a7be 6079 dd3e c4ec c8be
00000280: e158 db3d c590 08bf d6a2 04be 5d80 f5be
00000290: 6d07 493d aed7 1fbd 0300 bdbe 5047 643c
000002a0: 7e3c c73d d5eb 24bf 2160 97be 5b58 aabe
000002b0: ec0d 2ebf 6bcf 0abd 942b f0be b251 aabe
000002c0: 90e0 24be f87e bdbe 8748 02be 2052 acbe
000002d0: ca9e 50be 2a1c 14bf ca97 08bf 5520 0dbe
000002e0: 9158 e3be 5edf 5d3e 8f2d 36be 4f77 813e
000002f0: 85f8 87be 29f0 34be 82c1 cc3e 38d6 e43d
00000300: 3421 ed3f eb9b e9be 9536 95bd fcfd 16be
00000310: 5fd9 2a3e dc8a 17bf 33ec 613d cf9f fbbd
00000320: 5e65 8c3d f29b 05bf 20dd c1be 31cc e7bd
00000330: 064b 46be 35ed 61be 1ca6 1bbf 093b aabd
00000340: 99d1 1b3f d4df 2dbe 2d49 28be a13b 90be
00000350: 3dc1 0dbe 6c1f 6bbe 3f5c a3be b012 9b3c
00000360: 46f2 a0be 90ae 57bd 99fa e9bd dafd 09be
00000370: 6b59 e53c 80d8 983e 9c47 d5bd a046 8bbe
00000380: 4c99 4abc 5153 aabd 5ace 03bf 207e 25bd
00000390: a026 b23e 590f 0d3f 918f 38bf 5999 033e
000003a0: 19f2 4bbe 468e 75bd 59de bb3e 050d fa3d
000003b0: d5e2 b9be 3e88 f1be ef36 8fbe db2d 41be
000003c0: 8ce3 8dbe b4ea b5bd f39d d4be 7fa5 b1be
000003d0: 426b 8dbd 2689 a33d 0e6f 983d 4fee b5be
000003e0: 984f e83e b1f3 1bbe a7c4 dabe 11f1 383f
000003f0: fe63 c03e 0117 f4bc f743 14be c58e f03e

linear2.weight f4 [3, 256]
0.27606905 -0.14812246 -0.028491851 -0.034607634 -0.00014157595 -0.067757145 -0.122259945 0.45252758
0.004193502 0.3390017 0.01860635 -0.062975064 -0.15659286 -0.038677275 -0.0895867 0.40086716
-0.0041710017 -0.6770428 -0.04055489 -0.029235194 -0.048960697 -0.08716135 -0.046195887 -0.09419946
-0.16256915 -0.099530466 0.082245626 -0.016452184 -0.1452708 -0.21518628 -1.1455946e-05 -0.36474413
0.20319699 -0.053321436 -0.054628037 -0.03986807 -0.26372388 -0.19866495 -0.030721886 -0.01861844
-0.14352532 -0.58885145 0.4838972 0.0033295087 0.105307385 0.0045472914 0.016157849 -0.31589913
-0.35089695 -0.060503453 0.019519446 -0.31379512 -0.02508878 0.14151856 -0.06226928 -0.037740026
-0.46991622 0.014104088 0.20844251 0.03607406 -0.010809444 0.5733723 0.1602212 -0.08405337
-0.12194547 0.0047384193 0.026354192 0.016554747 -0.4153152 -0.2554647 -0.010560701 0.16696927
0.030809978 -0.025919668 -0.06219954 0.02327929 0.60032564 0.045534313 0.026395328 -0.23245782
0.15728174 -0.27195433 0.097930446 -0.19423589 0.21225502 0.43134168 -0.019068062 -0.04514051
0.5010867 0.025145894 0.10328232 0.53626996 -0.60311836 -0.115837045 0.13302968 0.021868633
-0.13180193 -0.07892195 0.015856344 0.22927222 -0.1473548 0.29037994 -0.0053120335 -0.02649489
-0.17438865 -0.24874915 -0.26674676 -0.19973072 0.44337186 -0.010429251 -0.25524375 0.17710938
-0.45384166 0.072682284 0.35398713 0.15166737 -0.16579476 -0.18998499 -0.15602642 0.018573992
0.42156148 -0.05763556 0.016908793 -0.03527397 -0.05265218 -0.2878309 -0.06206188 -0.0015711931
0.20090789 -0.05621662 0.04981887 -0.29750338 0.5083776 0.0030559641 0.0124824615 -0.065580435
0.092140995 0.26354137 -0.18206863 -0.39683738 -0.03656571 -0.17197199 0.13521086 -0.59146976
-0.001046734 0.044491958 -0.06383128 0.3820129 -0.22719453 -0.329138 0.010585109 -0.004345029
-0.17087407 -0.09842253 0.0018838126 -0.027882123 0.18641202 -0.12890872 0.37202927 -0.19297482
0.15641844 -0.007023141 -0.034967802 -0.02848256 0.46253213 -0.22660965 -0.11238726 -0.73433715
0.08558467 -0.24311596 0.03401752 0.043938305 0.03145034 -0.36217862 -0.354134 0.0074901665
0.020393543 -0.15440437 -0.6551422 -0.060822237 -0.057724603 -0.0039615138 -0.20683649 0.0068962006
-0.027216602 0.11510235 0.010082538 0.09253217 -0.07549526 0.021472296 0.23774916 0.44197202
0.44394502 -0.8930016 -0.040032085 -0.25698808 -0.69091856 -0.027619462 -0.23710808 0.0018383502
0.7399889 0.011312933 -0.017353471 -0.2777798 0.017140875 0.0013291091 0.0533673 -0.061488044
0.46716452 -0.12865843 -0.60063314 -0.7229942 -0.40632892 -0.12668675 -0.08978841 -0.15163594
-0.112332374 -0.14970668 0.0024742368 0.06529045 0.055238727 0.25286523 -0.07880348 -0.19977446
0.1316948 0.3192514 -0.19988842 -0.17413726 0.20900938 0.7322856 0.051333845 -0.14179379
-0.008706317 -0.0024633114 -0.026730862 0.27499446 -0.03552241 0.01521428 5.129741e-05 -0.11382642
-0.19345318 -0.6037587 0.0043754335 0.008085277 0.50526226 0.06245058 0.62084264 -0.007791414
0.5692784 0.009196527 -0.24565603 0.28251252 0.030613195 0.122454815 -0.34938732 0.17655192
00000000: ec58 8d3e 6aad 17be be67 e9bc bcc0 0dbd
00000010: 0174 14b9 42c4 8abd 6c63 fabd b2b1 e73e
00000020: a569 893b a191 ad3e 586c 983c 12f9 80bd
00000030: e159 20be 106c 1ebd 3b79 b7bd 763e cd3e
00000040: e6ac 88bb ad52 2dbf e21c 26bd a57e efbc
00000050: 038b 48bd a681 b2bd e637 3dbd a6eb c0bd
00000060: 8778 26be a1d6 cbbd 6570 a83d bbc6 86bc
00000070: dec1 14be cb59 5cbe ea32 40b7 bebf babe
00000080: df12 503e 9467 5abd a6c1 5fbd b44c 23bd
00000090: d106 87be d36e 4bbe 77ac fbbc b385 98bc
000000a0: 4df8 12be f8be 16bf 60c1 f73e e333 5a3b
000000b0: 66ab d73d 7201 953b 775d 843c 88bd a1be
000000c0: c4a8 b3be 78d2 77bd 3fe7 9f3c c1a9 a0be
000000d0: fc86 cdbc 3eea 103e 130e 7fbd 4995 1abd
000000e0: dc98 f0be d514 673c f471 553e 65c2 133d
000000f0: 181a 31bc 87c8 123f 0711 243e 2c24 acbd
00000100: 8cbe f9bd be44 9b3b bfe4 d73c d29d 873c
00000110: 32a4 d4be 45cc 82be ca06 2dbc fef9 2a3e
00000120: 3565 fc3c 7c55 d4bc f2c4 7ebd 36b4 be3c
00000130: f1ae 193f 3082 3a3d 043b d83c 6c09 6ebe
00000140: 770e 213e 993d 8bbe c28f c83d c6e5 46be
00000150: 6159 593e d1d8 dc3e a034 9cbc 41e5 38bd
00000160: 3847 003f c3fe cd3c ae85 d33d fd48 093f
00000170: f765 1abf f93b edbd ef38 083e d925 b33c
00000180: 16f7 06be d5a1 a1bd 2ae5 813c 56c6 6a3e
00000190: 2de4 16be aeac 943e 9110 aebb d00b d9bc
000001a0: f092 32be 19b8 7ebe 0893 88be 3686 4cbe
000001b0: a301 e33e 73df 2abc 4faf 82be 295c 353e
000001c0: ef5d e8be 73da 943d cd3d b53e b14e 1b3e
000001d0: 1ac6 29be 6d8b 42be 64c5 1fbe 7c28 983c
000001e0: e8d6 d73e 4413 6cbd 4f84 8a3c 707b 10bd
000001f0: d0a9 57bd 925e 93be 9934 7ebd 7ef0 cdba
00000200: ccba 4d3e 6643 66bd df0e 4c3d 5d52 98be
00000210: 0925 023f 9246 483b 3d83 4c3c 094f 86bd
00000220: 6bb4 bc3d e5ee 863e 3370 3abe 452e cbbe
00000230: edc5 15bd 6d19 30be b774 0a3e 906a 17bf
00000240: 9132 89ba 333d 363d f9b9 82bd 3297 c33e
00000250: afa5 68be c784 a8be 2a6d 2d3c bf60 8ebb
00000260: 9df9 2ebe c091 c9bd 43ea f63a 0d69 e4bc
00000270: cbe2 3e3e a600 04be 9f7a be3e 319b 45be
00000280: 282c 203e 6022 e6bb 663a 0fbd 4254 e9bc
00000290: 03d1 ec3e 5c0c 68be 4b2b e6bd 85fd 3bbf
000002a0: 0447 af3d 64f3 78be f455 0b3d a7f8 333d
000002b0: 12d2 003d 7a6f b9be 0d51 b5be 1270 f53b
000002c0: 5c10 a73c 2e1c 1ebe 66b7 27bf bd20 79bd
000002d0: a270 6cbd 96cf 81bb f2cc 53be 86f9 e13b
000002e0: 5af5 debc c8ba eb3d 3b31 253c 8281 bd3d
000002f0: 429d 9abd abe6 af3c 8474 733e 284a e23e
00000300: c34c e33e c19b 64bf aff8 23bd f193 83be
00000310: 0ae0 30bf 3642 e2bc 76cc 72be ccf4 f03a
00000320: ea6f 3d3f e159 393c de28 8ebc 2739 8ebe
00000330: 056b 8c3c 8035 ae3a ac97 5a3d e3da 7bbd
00000340: 3030 ef3e 09bf 03be 18c3 19bf 2616 39bf
00000350: 580a d0be 2cba 01be fce2 b7bd 7446 1bbe
00000360: 840e e6bd b54c 19be ce26 223b 00b7 853d
00000370: 0142 623d 8d77 813e b863 a1bd ad91 4cbe
00000380: 00db 063e eb74 a33e 8daf 4cbe 0a51 32be
00000390: 8e06 563e 1277 3b3f 7043 523d 6432 11be
000003a0: f1a4 0ebc 826f 21bb aefa dabc 13cc 8c3e
000003b0: f27f 11bd 5145 793c 2d28 5738 d31d e9bd
000003c0: 9718 46be ee8f 1abf cc5f 8f3b 1c78 043c
000003d0: de58 013f 2ecc 7f3d 8bef 1e3f 1e4f ffbb
000003e0: 3bbc 113f 08ad 163c 418d 7bbe 7ba5 903e
000003f0: 86c8 fa3c 97c9 fa3d e5e2 b2be 07ca 343e

linear2.bias f4 [3]
0.51642835 -0.036752187 0.05682864
00000000: a634 043f 7689 16bd 26c5 683d
