model/model.pth (torch, 16799 bytes, 4 tensors)

linear1.weight f4 [256, 11]
0	0x3dc2bddb	0.09508868
1	0xbeb589bc	-0.35456645
2	0x3ea6ca98	0.32576442
3	0xbd005e06	-0.031339668
4	0x3e53a89d	0.2066979
5	0xbde64bca	-0.11244924
6	0x3d9188cf	0.07106172
7	0x3e4ac69d	0.19802327
8	0xbeb24d51	-0.34824613
9	0xbf0b0175	-0.542991
10	0x3d8ee7ae	0.06977783
11	0xbe3aa7a9	-0.1822802
12	0x3f8041f5	1.0020128
13	0xbf1b60a5	-0.6069434
14	0x3e9c7b76	0.30562943
15	0x3d6ad972	0.05733628
16	0x3e4e6a62	0.2015777
17	0xbe95eb10	-0.292809
18	0x3ef46667	0.47734377
19	0xbe066019	-0.13122596
20	0xbefec273	-0.49757728
21	0xbcc14847	-0.023594035
22	0xbe9ab9f4	-0.30219996
23	0xbd9e3793	-0.07725444
24	0xbdca45d5	-0.09876601
25	0xbe4a30bc	-0.19745153
26	0x3b649944	0.0034881392
27	0xbdfe9d77	-0.12432378
28	0x3c52183d	0.012823162
29	0x3cde4e49	0.027136939
30	0x3dfcc7fe	0.12342833
31	0x3e443444	0.19160563
32	0xbe3983d8	-0.181167
33	0x3e2a3cda	0.16624776
34	0xbcc1287a	-0.023578871
35	0xbeff9230	-0.4991622
36	0xbd4810ac	-0.048844025
37	0xbd8a2dcc	-0.06747016
38	0x3ef2dc40	0.47433662
39	0xbe87b9fa	-0.26509076
40	0xbeacce38	-0.33751082
41	0xbe9aa4eb	-0.30203947
42	0xbecf96b3	-0.40544662
43	0x3e8ea97a	0.27863675
44	0x3d2bd97c	0.041955456
45	0x3f78b3aa	0.97149146
46	0xbe1519bb	-0.14560597
47	0xbebf8c06	-0.37411517
48	0x3e2bbd81	0.16771509
49	0xbf052ba3	-0.5201971
50	0xbdab4b43	-0.083639644
51	0x3cb6fb7c	0.022336714
52	0x3ef74d9b	0.48301396
53	0x3d8f35de	0.06992696
54	0xbd4db134	-0.050217822
55	0xbf1ff359	-0.62480694
56	0xbd233134	-0.039841846
57	0x3e8ebc09	0.27877834
58	0x3e1e8721	0.15481235
59	0xbec22a48	-0.37922883
60	0xbeb80c85	-0.35947052
61	0xbe175553	-0.14778642
62	0x3d918b87	0.07106691
63	0x3eb5b580	0.35490036
64	0xbee66fca	-0.45007163
65	0x3e978254	0.2959162
66	0x3d36b0d7	0.04460224
67	0xbe1740c6	-0.14770803
68	0x3f3488a1	0.7052098
69	0xbdf5f3ba	-0.12009378
70	0x3e449356	0.19196829
71	0x3d416b5b	0.047221523
72	0x3cece4c1	0.028917672
73	0x3dd36ab4	0.103230864
74	0x3d2d6e0e	0.042341284
75	0x3c01abf4	0.007914532
76	0x3d059d55	0.032620747
77	0xbe32309f	-0.1740136
78	0x3e731a79	0.23740567
79	0xbeab31f9	-0.33436564
80	0xbdf85bea	-0.12126906
81	0xbed0c02c	-0.40771616
82	0xbdf74f92	-0.12075724
83	0xbe84c47b	-0.25931153
84	0xbe8a296a	-0.2698472
85	0x3dc35491	0.09537614
86	0x3da2d5cf	0.07950937
87	0x3d7a4485	0.0611005
88	0xbe081c67	-0.13292085
89	0xbedd4e64	-0.4322387
90	0x3db7190e	0.08940326
91	0x3d373407	0.04472735
92	0xbda5e7a5	-0.08100823
93	0xbdc363ca	-0.09540518
94	0xbbffcc97	-0.0078063714
95	0xbc9fdf66	-0.019515704
96	0xbb9ce803	-0.0047884
97	0xbd6cb39b	-0.057788473
98	0x3c941b5e	0.018079456
99	0x3c40183f	0.011724531
100	0xbf30d3b6	-0.69073045
101	0x3f67544e	0.90363014
102	0xbe5d1bda	-0.21592656
103	0x3d853584	0.06504348
104	0xbd609616	-0.054830633
105	0xbebab9ab	-0.36469778
106	0x3e024b75	0.12724097
107	0x3e1adbd9	0.15122928
108	0xbe5ff5e9	-0.21871151
109	0x3debc05c	0.11511299
110	0xbe79f3c9	-0.24409403
111	0xbe5b0b66	-0.21391067
112	0xbe78e706	-0.24306878
113	0xbe2eb66e	-0.17061779
114	0xbe5ddfbe	-0.21667382
115	0xbcbf9145	-0.0233847
116	0xbb82bf15	-0.003990064
117	0x3e121ba3	0.14268355
118	0x3dad7613	0.084697865
119	0x3b151259	0.0022746532
120	0xbd4e7b25	-0.05041041
121	0xbcbe9d1e	-0.023268279
122	0xbc509126	-0.012729919
123	0x3dd156bb	0.10221621
124	0xbe111aff	-0.14170454
125	0x3d489c9a	0.048977472
126	0xbea42f0a	-0.32067138
127	0x3e0aad64	0.13542706
128	0xbe4fc85e	-0.20291278
129	0x3e0a110f	0.1348307
130	0xbea31681	-0.31853107
131	0x3c89f913	0.0168424
132	0xbe0e0f2d	-0.13872977
133	0xbe95cfe8	-0.29260182
134	0xbe15a687	-0.14614306
135	0xbdcdc888	-0.10048014
136	0xbe9ea131	-0.30982354
137	0xbe32560f	-0.17415641
138	0xbc872f85	-0.016502151
139	0x3e01a30d	0.12659855
140	0xbe1f1b0d	-0.15537663
141	0x3e5618c2	0.20907882
142	0xbe075e66	-0.13219604
143	0x3da24fe4	0.07925394
144	0xbef2423f	-0.47316167
145	0x3f447f22	0.7675649
146	0x3de3d198	0.11123961
147	0xbe0e5d57	-0.13902794
148	0xbca73431	-0.020410629
149	0x3e01d65f	0.12679432
150	0x3e9d4607	0.3071749
151	0xbd8a9c7e	-0.0676813
152	0xbd525588	-0.0513511
153	0xbec14239	-0.37745836
154	0xbdc3fa4d	-0.095692255
155	0xbdaa63fa	-0.0831985
156	0x3e3a5e1d	0.18199964
157	0xbed687c2	-0.4190045
158	0xbea59a3e	-0.3234424
159	0xbe6409fb	-0.22269432
160	0xbe0b897a	-0.13626662
161	0xbe441195	-0.19147332
162	0xbdb0bb74	-0.08629504
163	0xbdaf203c	-0.0855107
164	0xbd03f1f6	-0.032213174
165	0xbe5bf628	-0.2148062
166	0xbee891b6	-0.4542367
167	0xbe61efc7	-0.22064124
168	0x3e63bb4d	0.22239418
169	0x3e4d9a18	0.20078313
170	0xbef213ae	-0.4728064
171	0xbf06855e	-0.5254725
172	0x3e28ca31	0.1648338
173	0x3e3de3da	0.1854395
174	0xbf41f400	-0.7576294
175	0xbf34d5f9	-0.70638996
176	0x3b467ef3	0.003028807
177	0x3e667895	0.22506936
178	0xbeee9bc2	-0.4660321
179	0x3d7391b6	0.059465133
180	0xbe761e1a	-0.2403492
181	0x3e36f74b	0.17867772
182	0xbd44dcf3	-0.048062276
183	0xbe0e8054	-0.13916141
184	0xbc978c1e	-0.01849943
185	0xbe008f4f	-0.12554668
186	0x3db36335	0.087591566
187	0xbe911b0c	-0.28340948
188	0x3e822e66	0.25426024
189	0xbdb74980	-0.08949566
190	0x3e1af2bb	0.15131657
191	0xbf4e5bfc	-0.80609107
192	0xbf4c6b6e	-0.79851425
193	0x3eb9e69c	0.36308753
194	0xbf5cbb92	-0.8622371
195	0xbeee6751	-0.465632
196	0xbf1c4f75	-0.6105874
197	0x3ec6e2e2	0.38844973
198	0x3b873307	0.004125956
199	0x3dcdea89	0.100545
200	0x3db19229	0.08670456
201	0xbedb9b39	-0.42891863
202	0x3e8c57ec	0.2741083
203	0x3f1bc7a4	0.608515
204	0xbeba92f1	-0.36440232
205	0xbe9c776b	-0.3055986
206	0xbf2c05d6	-0.67196405
207	0x3edeaa99	0.4348953
208	0xbeeb9da2	-0.46018702
209	0xbf0852e1	-0.53251463
210	0x3e82eb2b	0.25570044
211	0x3e447e19	0.19188727
212	0xbccc2d34	-0.024923898
213	0xbe2bf9ce	-0.16794512
214	0x3ac964ec	0.001536516
215	0x3c67cb52	0.014147596
216	0x3ce0d151	0.02744356
217	0xbe0c0ea1	-0.13677455
218	0xbe308906	-0.1723977
219	0xbdf2b2f4	-0.11850539
220	0x3e101247	0.14069472
221	0x3ec861cf	0.39137122
222	0xbf40181b	-0.7503678
223	0xbe5c51f1	-0.21515633
224	0x3e333486	0.17500505
225	0x3e5a3d78	0.21312511
226	0xbe8dfa9c	-0.27730262
227	0x3eab0335	0.33400884
228	0x3c6aa974	0.014322627
229	0x3e380e7b	0.17974274
230	0x3ea4caf3	0.32186088
231	0xbed9ef0e	-0.42565197
232	0x3eb8c06b	0.36084303
233	0xbc8cb2ab	-0.01717504
234	0xbe39e52c	-0.18153828
235	0xbefe0cd0	-0.4961915
236	0xbe39e921	-0.18155338
237	0xbe40052b	-0.18751971
238	0xbe5634f5	-0.20918639
239	0xbd98f729	-0.07469017
240	0x3c01c821	0.00792125
241	0xbe128d4f	-0.14311717
242	0xbd63c493	-0.05560739
243	0xbdc45c8b	-0.09587964
244	0xbd0f6650	-0.035009682
245	0xbe2ca5c4	-0.1686011
246	0xbde460c0	-0.11151266
247	0xbe3b301f	-0.18280075
248	0x3e453ecf	0.19262241
249	0xbe90eb24	-0.28304398
250	0x3d906dc2	0.07052185
251	0x3c9722d1	0.018449219
252	0x3ce5bf7f	0.028045414
253	0xbea19193	-0.31556377
254	0xbd1d8eee	-0.038466386
255	0xbefe6bdb	-0.49691662

linear1.bias f4 [256]
0	0xbe475005	-0.19464119
1	0xbdb5720d	-0.08859644
2	0xbeb97223	-0.36219892
3	0xbe95d2a5	-0.29262272
4	0xbd00e5fa	-0.031469323
5	0xbec43c7f	-0.38327405
6	0xbe9dcb42	-0.30819136
7	0xbea3fbc3	-0.32028016
8	0xbe1dd560	-0.15413427
9	0xbc0e69a4	-0.008692179
10	0xbe1b3b2e	-0.15159294
11	0xbeed97ab	-0.46404776
12	0xbeb012ae	-0.3438925
13	0xbe2dfc08	-0.16990674
14	0xbd97726e	-0.073948726
15	0x3e8e1cb3	0.2775627
16	0xbefd5588	-0.49479318
17	0x3d558fc5	0.052139062
18	0xbdeb02e0	-0.11475158
19	0xbf008070	-0.5019598
20	0xbec651b9	-0.38734224
21	0xbea36a47	-0.3191702
22	0xbe9bd944	-0.30439198
23	0xbd52f935	-0.051507194
24	0xbed1e046	-0.4099142
25	0x3da7997a	0.0818357
26	0xbea3be09	-0.31980923
27	0xbe395a58	-0.1810087
28	0x3c026bf5	0.007960309
29	0xbe99d1f7	-0.30043003
30	0x3f2147c1	0.6300011
31	0x3db4f04a	0.08834894
32	0x3feb92bf	1.8404158
33	0x3e0c3170	0.13690734
34	0x3f4831a7	0.78200763
35	0xbe926971	-0.2859607
36	0xbda1e324	-0.07904652
37	0xbe9211d3	-0.28529224
38	0x3e8c00db	0.27344403
39	0xbeb347f7	-0.35015842
40	0xbe81caf8	-0.25350165
41	0xbdbd994c	-0.09257755
42	0xbe552727	-0.20815717
43	0x3d7d854f	0.06189471
44	0xbe602990	-0.21890855
45	0xbdbe0248	-0.09277779
46	0xbe89aaa1	-0.26887992
47	0xbee1b1ed	-0.4408106
48	0xbe0e0e56	-0.13872656
49	0xbe330923	-0.17483954
50	0xbe7f9ab7	-0.24961363
51	0xbdc616e0	-0.09672332
52	0xbb3cdc62	-0.0028817882
53	0xbda052ba	-0.07828279
54	0xbdc85966	-0.097826764
55	0xbdda172f	-0.10648953
56	0xbf026712	-0.5093852
57	0xbe81cf30	-0.25353384
58	0xbda87484	-0.082253486
59	0xbed639c4	-0.41840947
60	0x3d4529f1	0.0481357
61	0xbee9aee4	-0.45641243
62	0x3c0e9a7c	0.008703824
63	0xbce65afb	-0.028119555
64	0x3e6ac50c	0.2292673
65	0xbd933368	-0.07187539
66	0xbdd0d5df	-0.10197043
67	0xbed6de3b	-0.41966423
68	0xbd5bdee9	-0.05367938
69	0xbe73e14a	-0.2381641
70	0xbdaf6ece	-0.08566056
71	0xbf196529	-0.59919983
72	0x3e3a4b76	0.18192849
73	0xbe4d7a8c	-0.20066279
74	0x3c820b43	0.01587451
75	0x3da1905b	0.07888862
76	0xbdec3b4f	-0.1153475
77	0x3ea3c31b	0.3198479
78	0xbe8cf697	-0.27531883
79	0x3e980a3d	0.2969531
80	0xbf19b73f	-0.60045236
81	0x3fa143be	1.2598798
82	0xbe683ba1	-0.22678997
83	0xbe3c0e0a	-0.1836473
84	0xbe7ba922	-0.24576238
85	0xbebd9dc2	-0.37034422
86	0xbddf1ee4	-0.10894564
87	0xbeba9995	-0.364453
88	0x3ec634d7	0.3871219
89	0x3f0e7313	0.5564434
90	0xbf182259	-0.5942741
91	0xbe88c3a6	-0.26711768
92	0x3f2216c5	0.63315994
93	0xbdc74e57	-0.09731739
94	0xbec29db9	-0.38010958
95	0xbdf5f5d4	-0.120097786
96	0xbe5e94cf	-0.21736453
97	0x3e221dc6	0.1583167
98	0xbecff630	-0.40617514
99	0xbd4b8e74	-0.0496964
100	0xbcd63b09	-0.026151197
101	0x3e29c4c7	0.16578971
102	0xbe401860	-0.18759298
103	0x3c92979e	0.017894562
104	0xbed97fce	-0.4248032
105	0xbe913433	-0.28360137
106	0xbe24beca	-0.16088405
107	0x3d15152b	0.03639714
108	0xbe80e597	-0.25175163
109	0xbe18006d	-0.14843912
110	0x3db1f092	0.08688463
111	0xbe1ffc2a	-0.15623537
112	0x3e369c8b	0.17833154
113	0xbeb8d5c0	-0.36100578
114	0xbe9d7fd0	-0.30761576
115	0xbe9a0593	-0.30082378
116	0xbe89799b	-0.2685059
117	0x3c03a449	0.008034774
118	0x3e2ffb35	0.17185672
119	0x3e26210b	0.16223542
120	0xbf0e0ad7	-0.5548529
121	0x3d25ef6a	0.040511526
122	0xbe217d33	-0.15770416
123	0xbec99497	-0.39371178
124	0xbeb5fca8	-0.35544324
125	0xbea13343	-0.31484422
126	0xbf0e1bb5	-0.5551103
127	0xbe830222	-0.25587565
128	0xbed6d7e5	-0.4196159
129	0x3e43ac12	0.19108608
130	0xbe9c321a	-0.30506974
131	0x3eb56a04	0.35432446
132	0xbe295e43	-0.16539864
133	0xbe45cdde	-0.19316813
134	0xbe639082	-0.22223094
135	0xbf1780a7	-0.5918068
136	0xbeb4416b	-0.3520616
137	0xbe448960	-0.1919303
138	0x3e8c4e69	0.27403572
139	0xbe256835	-0.16153033
140	0xbf0bee2e	-0.5466031
141	0xbdc0aec0	-0.09408331
142	0xbb897985	-0.0041953945
143	0xbe87a973	-0.26496467
144	0x3ded0b52	0.11574425
145	0xbe5943fe	-0.21217343
146	0xbe59c242	-0.2126551
147	0xbec2a2fa	-0.38014966
148	0xbecb864a	-0.39750892
149	0xbe24f78c	-0.16110057
150	0xbecdf195	-0.40223375
151	0x3f0bc67b	0.5459973
152	0xbea9a5c2	-0.33134276
153	0x3e8d201b	0.27563557
154	0x3f2f9b7f	0.68596643
155	0xbe83f38c	-0.2577175
156	0xbebc225c	-0.36744964
157	0xbe99d6c3	-0.30046663
158	0xbcb94a9d	-0.022618586
159	0xbe4cffbf	-0.20019434
160	0xbe0d0ac8	-0.13773644
161	0xbd3c0765	-0.04590549
162	0xbccf68c8	-0.025318518
163	0xbee75359	-0.45180777
164	0x3eb7bed8	0.3588779
165	0xbed1e609	-0.40995815
166	0xbdcf0e20	-0.10110116
167	0xbecc45b0	-0.39896917
168	0xbf05d4c5	-0.52277786
169	0xbce603ed	-0.028078044
170	0xbf0bb04e	-0.54565895
171	0xbe95a19f	-0.2922487
172	0xbe3cb1b4	-0.18427163
173	0xbdde62bf	-0.10858678
174	0xbcbdd1fe	-0.023171421
175	0xbeada20e	-0.339127
176	0xbec79209	-0.38978603
177	0xbe9979fc	-0.2997588
178	0xbcf8ab47	-0.030355109
179	0x3e26b266	0.16278991
180	0x3f324339	0.69633824
181	0xbefba08d	-0.49145928
182	0xbdb3c76d	-0.08778272
183	0xbed8442f	-0.4223952
184	0xbeb03a2a	-0.34419376
185	0xbeb43e6b	-0.3520387
186	0xbea19b5e	-0.31563848
187	0xbc8bd29a	-0.017068196
188	0xbd869f55	-0.06573359
189	0xbb3acf14	-0.0028504776
190	0x3e8dec8f	0.27719542
191	0x3c23cddd	0.009997812
192	0xbea9e696	-0.33183736
193	0xbe9a45d1	-0.3013139
194	0xbe147814	-0.14498931
195	0xbadf4aed	-0.001703588
196	0xbd9d8884	-0.07692054
197	0xbed9bf31	-0.4252868
198	0xbcf46254	-0.029832043
199	0x3e279732	0.1636627
200	0xbecbded2	-0.39818436
201	0xbee5b274	-0.4486271
202	0xbecc075a	-0.3984936
203	0xbe2bc04d	-0.16772576
204	0xbe912997	-0.28352043
205	0xbf128962	-0.5724088
206	0xbe7b251b	-0.24525873
207	0xbeb1259f	-0.34599015
208	0xbe9f2c4c	-0.31088483
209	0xbe858d1e	-0.26084226
210	0x3ebe12a4	0.37123597
211	0xbebf8f4b	-0.3741401
212	0xbddb4186	-0.10705857
213	0x3e018915	0.12649949
214	0x3e2f879a	0.17141572
215	0xbdcb6c9e	-0.099328265
216	0x3e7aceab	0.244929
217	0xbdc74fd2	-0.097320214
218	0x3d216332	0.03940124
219	0x3d0f8102	0.03503514
220	0xbebe3ec2	-0.37157255
221	0xbe7aed16	-0.24504504
222	0x3e1f1fc4	0.15539461
223	0xbeb68292	-0.35646492
224	0xbe687d0b	-0.2270395
225	0xbe459dbb	-0.1929845
226	0x3e57d5a9	0.21077599
227	0xbda97792	-0.08274759
228	0xbe9ffd07	-0.31247732
229	0x3e9b6bd6	0.3035571
230	0xbdb1473d	-0.08656166
231	0xbc73cf1d	-0.014880923
232	0xbf081774	-0.53160787
233	0xbe2cb800	-0.16867065
234	0xbe25b96c	-0.16184014
235	0x3d80413e	0.06262444
236	0x3de42973	0.11140718
237	0xbe3561b4	-0.17713052
238	0xbe0c8fe6	-0.13726768
239	0xbef4e073	-0.4782749
240	0xbe3ca4a9	-0.18422188
241	0x3e576fff	0.21038817
242	0xbd7fe4d9	-0.062474106
243	0xba58e46a	-0.00082737824
244	0xbd74b635	-0.05974408
245	0xbe7ef240	-0.24897099
246	0xbf08598e	-0.5326165
247	0xbd0c27e1	-0.03421772
248	0xbe13b5cf	-0.14424823
249	0x3e23dec7	0.16002952
250	0xbc1ca08e	-0.009559764
251	0x3ee8f355	0.45498148
252	0xbd7ccf58	-0.061721176
253	0x3bdde65e	0.0067718467
254	0xbef89bbb	-0.48556313
255	0xbeddfa5c	-0.43355072

linear2.weight f4 [3, 256]
0	0xbdda389b	-0.10655328
1	0x3e7b2486	0.24525651
2	0x3c006c01	0.00783825
3	0xbf2656fe	-0.6497649
4	0x3e073086	0.13202104
5	0x3c6a0ef3	0.014285791
6	0x3d939fab	0.072081886
7	0x3ace4183	0.0015736077
8	0xbb0076b5	-0.0019602005
9	0x3d97dffa	0.07415767
10	0x3baa58bc	0.0051985662
11	0xbc2e6032	-0.010643052
12	0x3dadd957	0.0848872
13	0x3dda2885	0.1065226
14	0x3af442c5	0.0018635622
15	0x3eb4790f	0.3524861
16	0x3cbe79c1	0.023251416
17	0x3ede6f56	0.43444318
18	0x3ebd3591	0.3695493
19	0x3cb33b74	0.021878935
20	0x3d7effdd	0.06225573
21	0xbc90ea77	-0.017689927
22	0x3d0d8fa6	0.034560822
23	0x3e72a266	0.23694763
24	0xbe38b2e3	-0.1803699
25	0x3e95e4a1	0.29275993
26	0xbe05c014	-0.13061553
27	0x3dfcfb04	0.12352565
28	0x3e35fefc	0.1777305
29	0x3bc195bd	0.005907743
30	0x3e0a6da0	0.13518381
31	0x3e9cc399	0.3061798
32	0x3ee2e586	0.44315737
33	0x3e439676	0.19100365
34	0x3e991c42	0.29904372
35	0xbd918c8e	-0.07106887
36	0x3ecb7691	0.39738896
37	0xbddb6102	-0.10711862
38	0x3ed43728	0.4144833
39	0xbd05a7ba	-0.03263066
40	0xbe327573	-0.17427616
41	0xbee4b4cd	-0.4466919
42	0xbc95a602	-0.018267635
43	0xbe8ea0c9	-0.27857044
44	0xbeaa8022	-0.33300883
45	0xbe9f3c47	-0.31100675
46	0xbd747d4f	-0.059689816
47	0x3dafb73b	0.0857987
48	0xbbc2421a	-0.00592829
49	0xbe652aac	-0.2237956
50	0xbd600d94	-0.05470045
51	0xbc93e7c4	-0.01805485
52	0xbe4ec207	-0.20191203
53	0xbd517e6b	-0.051145952
54	0xbc0a02a8	-0.008423485
55	0xbc6bcb3e	-0.014391718
56	0x3c4f9a07	0.012671
57	0x3b446592	0.0029967767
58	0xbf2e0947	-0.67982906
59	0xbe98cf0b	-0.2984546
60	0x3e2337fb	0.15939324
61	0x3bfb2365	0.0076641315
62	0xbc0338d2	-0.0080091525
63	0xbf1955b3	-0.5989639
64	0x3d8f977b	0.070113145
65	0x3e1d0566	0.1533409
66	0xbcccc5f7	-0.02499674
67	0xbd631ab6	-0.055445395
68	0x3e4b22dc	0.19837517
69	0xbeeb4323	-0.4594966
70	0x3d6a0f3c	0.057143435
71	0xbd5f6a9f	-0.05454504
72	0xbd5102cb	-0.051028054
73	0xbd9cf6cd	-0.07664261
74	0x3f1931a5	0.59841377
75	0x3e755f80	0.23962212
76	0xbee688a7	-0.45026132
77	0x3eae9bbc	0.3410319
78	0xbb039896	-0.0020079962
79	0x3f1c2e67	0.61008304
80	0xbda66dbc	-0.08126399
81	0x3e9323ee	0.2873835
82	0xbe123ef8	-0.14281833
83	0x3c400c73	0.011721718
84	0xbe86b41d	-0.2630929
85	0xbe84afcc	-0.25915372
86	0x3ce4f6b0	0.027949661
87	0x3d122d4f	0.03568774
88	0x3eab66e3	0.33476934
89	0x3efaf967	0.49018404
90	0xbd7c94b3	-0.061665248
91	0xbee2f56f	-0.44327876
92	0x3e6d2ae3	0.23160891
93	0xbe6cf41b	-0.23139994
94	0x3d6edd86	0.05831673
95	0xbef70b63	-0.48250875
96	0x3e9bff7c	0.30468357
97	0x3e84ffe4	0.2597648
98	0xbd1563a6	-0.036471985
99	0xbb1cb469	-0.0023911244
100	0xbf161a6a	-0.58634055
101	0x3e24c49c	0.16090626
102	0xbade052d	-0.0016938798
103	0xbe010594	-0.12599784
104	0xbe504f21	-0.20342685
105	0xbda5d414	-0.08097091
106	0x3c97f34d	0.018548632
107	0xbedb63f1	-0.42849687
108	0xba960fa1	-0.001144875
109	0xbceb2848	-0.028705731
110	0x3e8352ee	0.25649208
111	0xbde51f05	-0.11187557
112	0x3dbd3251	0.09238113
113	0xbddf8ed0	-0.10915911
114	0xb8e3edea	-0.000108685184
115	0x3bdbbcdc	0.0067058634
116	0xbe63a2fc	-0.22230142
117	0xbe9b724d	-0.30360642
118	0x3e4ffe6f	0.20311902
119	0x3e7ac48a	0.24489036
120	0xbe0e6d9d	-0.13909002
121	0x3d047764	0.032340422
122	0x3e71b4ce	0.23604128
123	0xbf09375f	-0.53600115
124	0x3cea16cc	0.028575324
125	0x3b4b8386	0.0031053736
126	0xbd9b611c	-0.075868815
127	0xbe13da37	-0.14438711
128	0xbcb8ad0b	-0.02254345
129	0x3d82dcb5	0.06389753
130	0xbd632b1e	-0.05546104
131	0x3e00f843	0.12594704
132	0xbaaa6129	-0.0012998927
133	0x3d0c8ffc	0.034317
134	0x3e13bd00	0.14427567
135	0xbe0947d9	-0.13406314
136	0xbc9a34b1	-0.018823953
137	0x3daa00b4	0.08300915
138	0x3e45cc34	0.19316179
139	0x3e30474a	0.17214695
140	0xbc8e04dd	-0.017336303
141	0xbc9d4c85	-0.019201526
142	0xbe3a6bc0	-0.18205166
143	0x3cd0b94f	0.025478987
144	0x3e8c6a79	0.27424982
145	0xbab37782	-0.0013692232
146	0xbf5001c7	-0.8125271
147	0xbc14f1bd	-0.009090838
148	0xbd49bb99	-0.049251173
149	0xbd5d7b41	-0.054072622
150	0xbdc9062f	-0.098156326
151	0x3eb66e2d	0.35630932
152	0x38a70b7d	7.9653204e-05
153	0x3eb67ca0	0.35641956
154	0x3d5da0f9	0.054108594
155	0xbe583f0c	-0.211178
156	0x3cb5b555	0.022181192
157	0xbd092fb5	-0.033492763
158	0x38ea7f86	0.000111817426
159	0xbeb89dd8	-0.36057925
160	0xbe31bef5	-0.17358
161	0xbf2604ee	-0.6485127
162	0x3d92bd1c	0.07164976
163	0xbdb33b2c	-0.087515205
164	0x3eabb7ec	0.3353876
165	0xbe4f6b70	-0.20255828
166	0xbf111884	-0.5667803
167	0x3c9c310f	0.019066362
168	0xbd9d5ec0	-0.07684088
169	0xbe314ae9	-0.17313732
170	0x3d383428	0.044971615
171	0xbc86acd8	-0.01643984
172	0xbe037f69	-0.12841572
173	0xbcb83e08	-0.022490516
174	0xbeddad7d	-0.43296424
175	0xbe441ad3	-0.19150858
176	0xbd80e471	-0.06293572
177	0x3d1460b6	0.036225043
178	0x3e4da545	0.20082577
179	0x3eb69de3	0.35667333
180	0x3e34c85f	0.1765456
181	0xba415f5f	-0.0007376577
182	0xbba1e820	-0.0049410015
183	0xbdd1f419	-0.10251636
184	0x3de996b5	0.11405698
185	0x3c91341d	0.017725045
186	0x3d25d982	0.040490635
187	0xbdfaa708	-0.1223889
188	0xbd00c7c9	-0.03144053
189	0x3ea66029	0.3249524
190	0x3da4df85	0.080504455
191	0x3d1a0362	0.037600882
192	0x3d9ea07b	0.07745453
193	0xbd555b6b	-0.052089136
194	0xbe33a894	-0.17544776
195	0xbbc2de31	-0.0059468974
196	0x3e858caf	0.26083896
197	0xbba83495	-0.0051332214
198	0xbe06485d	-0.13113542
199	0x3e100d69	0.14067616
200	0xbcfecf35	-0.031104663
201	0x39dc6a65	0.0004204094
202	0x3c8dfc90	0.017332345
203	0xbedb44a7	-0.42825815
204	0x3b6fe659	0.0036605804
205	0xbe06743e	-0.1313028
206	0x3c2c766d	0.010526282
207	0x3da7aadd	0.081868865
208	0xbd37befb	-0.044859868
209	0x3b5ec42d	0.0033991442
210	0x3e3c4630	0.1838615
211	0xbb417513	-0.0029519245
212	0x3ea6eb0d	0.32601205
213	0x3eaf3459	0.34219626
214	0x3e23b457	0.15986763
215	0xbe889082	-0.2667275
216	0x3e8041ef	0.25050303
217	0xbb093845	-0.002093808
218	0xbea668af	-0.32501742
219	0x3f13a83b	0.57678574
220	0x3bd1387d	0.0063849078
221	0xbb7ed460	-0.003888391
222	0x3c53bd3e	0.012923537
223	0xbe03f699	-0.12887038
224	0xbe57ebd0	-0.21086049
225	0xbca43ab8	-0.02004753
226	0x3daa28a6	0.08308534
227	0x3cb46228	0.02201946
228	0xbb570699	-0.003281033
229	0x3eb37b95	0.35055223
230	0xbea81dd0	-0.32835245
231	0xbf2ca308	-0.67436266
232	0xbe31d027	-0.1736456
233	0xbe3219eb	-0.173927
234	0x3ed31691	0.41228154
235	0x3eae060f	0.33988997
236	0x3d279b36	0.040919505
237	0xbca784d2	-0.020449076
238	0xbe7c0e72	-0.24614885
239	0xbdaf97dc	-0.08573887
240	0xbd72ec98	-0.059307665
241	0x3e062c20	0.1310277
242	0x3db44fb9	0.088042684
243	0x3e81eb3d	0.25374785
244	0x3dcb7cee	0.09935938
245	0xbdb7e534	-0.08979264
246	0xbdf30dd9	-0.118678756
247	0x3e2110e4	0.157291
248	0xbd21dd6c	-0.039517805
249	0xbceb1f33	-0.0287014
250	0x3ee136ce	0.43987125
251	0x3ecdfbc8	0.40231156
252	0x3e7bd874	0.24594289
253	0x3d9f6bd4	0.077842385
254	0x3c374733	0.011186409
255	0xbcfbbfe4	-0.030731149

linear2.bias f4 [3]
0	0x3e93a33a	0.2883547
1	0x3cd89487	0.02643801
2	0x3e04aa2d	0.12955542
